checkpoint_actor.pth (torch_old, 20228 bytes, 4 tensors)

fc1.weight f4 [128, 33]
00000000: 7344 933e 3610 af3e cbe4 6dbe 3d6d bdbc
00000010: 814f 46be 6c55 50bf d8d1 2dbe 9dfd e0bd
00000020: d22a b3bf fdf2 e4be 0241 31be 5f36 933d
00000030: bd42 2bbf 7e0b b23d a0ea c2be 56fa 4bbf
00000040: 69c3 2640 4359 37be 39bb f2be db04 93bf
00000050: 1a1d 9e3e c329 e7be 7700 38bf 1bab 5fbf
00000060: 9285 663d 021a 59be b3cd fbbc d06e 773f
00000070: 4b13 be3e c480 d2bc c8de 67bf 703d ef3b
00000080: 7eb3 b5bf 6bb2 ff3e 34db 143f 3b53 28bf
00000090: f87b 9fbe d648 c23f 57b5 383e bd27 e4be
000000a0: 9717 fe3e f70e e03f ac23 3f3f b2c9 92be
000000b0: 7cb1 673f 1b72 ddbe 0d8f 903f 09f0 7e3f
000000c0: af7f 383e a7ce f53e c98a a0be 3cac 273f
000000d0: fe49 35bf 1c8e 923e 8d85 fcbd 89ca fc3e
000000e0: e893 5f3e d5c4 403f f2ba 98bb d02f b23e
000000f0: 5428 13be 4ae6 8cbe 8079 13bc 0cff 3f3e
00000100: 00d4 58b9 e15e 21c0 542f 83bf 7ab7 613f
00000110: bc59 1e3f 1e32 c9be 9e31 8b3f 5aeb c3bf
00000120: cd3b c03d 0f34 f73e 82dc 38bf 6446 a53e
00000130: 0a4e c2bd 7118 1b3e 2e95 4dbd e15b 8e3e
00000140: 770e 0abf b697 1ebd 67c5 c83e 4e50 73bf
00000150: 284d 7b3d 4958 9dbf 3dd8 d2bd 3266 b93d
00000160: 730e b03e feff e43c 20ee a4be 3ed4 053f
00000170: bea7 353f 4539 523f b361 e9be 6e54 513d
00000180: ae17 4fbf a06d 93bd 352a efbf 2250 24bf
00000190: 86f3 9f3f b96e 99be 439b 3dbf 48bb aabe
000001a0: 873a 923e e47b 163f a63d fdbe 932f bdbf
000001b0: cc5b 29bf 2be6 5dbe ae40 debe 43f5 973e
000001c0: f57f 2cbf 3dc1 bbbe a8dc eb3e bf3d e43f
000001d0: 8c69 733f b6d6 a83f 0a17 d7bd 4ce2 993d
000001e0: 14c2 71be 83ce 9bbe 356f c2bd 13c8 833e
000001f0: 64e6 f53d 561d ca3e 4555 23bd e10e 8bbe
00000200: 708b f03b fb5f f8bc cdaf 883d e34a 19c0
00000210: 5110 9fbe 0415 d7be 486e 553f 8eb8 a2bd
00000220: b5a4 eabe 9953 893e 7a67 ed3f 4679 943f
00000230: 4b17 cfbe 06fe 013f 7501 e1bc 38de 2f3d
00000240: 4130 b73e f1db 983f 7b9b a9bb b13c 663e
00000250: 716d 843f ebbe 03bf a6bd bebe 35b0 04bf
00000260: b68c d0bc e346 dabe 7333 a3be d346 7a3e
00000270: cc61 223d d6bb 69be 99a6 2bbf 398c f8bd
00000280: 9598 fbbe 867e 21bd 4f8b 8e3d 7552 9b3d
00000290: a7f7 febe e159 9e3c 6f66 eabe 7d07 853e
000002a0: e9c8 4c3f 629e 85bf 0242 6f3f eb36 47bf
000002b0: 293e c73d be36 003c 0ad6 e0be 9be0 27bf
000002c0: 361f a23e a1ef e03e 3a56 0ebf 8c0c ec3e
000002d0: ffa9 343f 2ed7 d33d cf37 6bbf 3ea7 9ebe
000002e0: 257e f5be 615f 113f 42cb 37bf 05d3 cb3e
000002f0: 5bac 86be 0bd2 e03d e29e b33c e1cd 22bf
00000300: e4df 453f d9fe 253f 3445 dc3c c6fd 4abf
00000310: 2878 6cbc 6d4a f13f 8dd7 d3be cde0 843e
00000320: 5994 84be 619b 3fbe 1c8c 80bf 3841 d8bf
00000330: 1008 04be 7914 023f 7597 04bf 233f 1fbf
00000340: 73cb 973d cb53 813e eacd 8ebe 1521 7e3f
00000350: ddd6 17bf f45b 8a3e 156e 823f f7d5 7c3f
00000360: 27cf a93d 7047 47bf d27d ec3e 13b5 d7be
00000370: ce87 bbbd 1c33 9c3d c8fa 0ebf 07b1 6cbc
00000380: 9531 263e 00cf 8c3d 12f1 28be 6c20 0e3d
00000390: 4507 dfbd fadd 183d bbbe 5ec0 3fe0 b83d
000003a0: f60e ae3e 637f 90bf 768f 9b3f 2569 0e40
000003b0: 2eb3 50bf d95c e2bf 5751 b0be 8c30 853f
000003c0: ea79 18bf 41a8 c5bd 8878 233f 7a0a 46bf
000003d0: e808 0e3f 110d 0bbe 7980 843d 173f a0bf
000003e0: 9e6e 2a3d da10 1bbd 961b 353f 8561 013e
000003f0: dc33 7dbd a99e 1e3e 80e9 2a3d aacb a7bd
0.2876316 0.34192055 -0.23231809 -0.023123378 -0.19366266 -0.81380343 -0.1697458 -0.10985873
-1.3997443 -0.44716635 -0.17309955 0.07188105 -0.6689871 0.08693598 -0.3806963 -0.7967886
2.605677 -0.17905144 -0.47408465 -1.1485857 0.30881578 -0.4514905 -0.7187571 -0.8737046
0.056279726 -0.21201327 -0.030737733 0.9665346 0.37124094 -0.025696166 -0.9057431 0.007301025
-1.4195402 0.4994081 0.5814698 -0.65752 -0.31149268 1.5178478 0.18037926 -0.44561568
0.49627373 1.7504567 0.74663806 -0.28669506 0.90505195 -0.43251118 1.1293656 0.99585015
0.18017457 0.48009226 -0.31355885 0.65497184 -0.7081603 0.28624046 -0.1233016 0.49373272
0.21833766 0.7530034 -0.0046609575 0.34802103 -0.14370853 -0.27519447 -0.009001136 0.18749636
-0.00020678341 -2.521416 -1.0248818 0.8817059 0.61855674 -0.3929605 1.0874517 -1.5306199
0.09386406 0.48281905 -0.7221147 0.32280266 -0.09487541 0.15146042 -0.050191097 0.27804473
-0.5392832 -0.0387189 0.39213106 -0.9504441 0.06135288 -1.2292567 -0.102951504 0.09052695
0.34386024 0.027954098 -0.32212925 0.5227698 0.7095908 0.82118636 -0.4558235 0.05110591
-0.8089551 -0.07198644 -1.8684756 -0.6418477 1.2496192 -0.29967287 -0.74065036 -0.3334601
0.28560278 0.5878279 -0.49461097 -1.4780143 -0.66155696 -0.21669833 -0.43408722 0.29679307
-0.67382747 -0.36670867 0.46066785 1.7831343 0.95082927 1.3190525 -0.10502441 0.07513866
-0.23609191 -0.30430993 -0.09493867 0.25738582 0.12006834 0.39475507 -0.03987624 -0.2715979
0.007340841 -0.030319205 0.06674156 -2.3951957 -0.31067136 -0.4200822 0.833714 -0.07945357
-0.45828786 0.26821592 1.8547204 1.159951 -0.4044746 0.50778234 -0.027466515 0.042936534
0.35779002 1.1942121 -0.0051760054 0.2248409 1.0345899 -0.5146319 -0.37254065 -0.5183137
-0.025457721 -0.42632207 -0.3187519 0.2444108 0.039644048 -0.2282556 -0.6705108 -0.1213612
-0.49139848 -0.039427303 0.06960165 0.07584087 -0.4979832 0.019329967 -0.45781276 0.25982276
0.79994065 -1.043896 0.93460095 -0.77818173 0.09728653 0.007825552 -0.439133 -0.65577096
0.31664437 0.43932822 -0.5560032 0.46103323 0.70571893 0.10343777 -0.9188203 -0.3098697
-0.47947803 0.5678616 -0.7179452 0.39809433 -0.26303372 0.109775625 0.021926347 -0.63595396
0.77294755 0.6484199 0.026888467 -0.7929348 -0.014432944 1.8850838 -0.4137539 0.2595276
-0.2589443 -0.18711616 -1.0042758 -1.6894903 -0.128937 0.5081249 -0.51793605 -0.62205714
0.07411852 0.2525924 -0.27891475 0.9926923 -0.5931223 0.2702328 1.0189844 0.98763984
0.08291464 -0.7784338 0.46189743 -0.42130336 -0.09156762 0.07626936 -0.5585141 -0.0144465035
0.16229852 0.068754196 -0.16498211 0.03469889 -0.108900584 0.03732107 -3.4803913 0.090271465
0.3399579 -1.1288875 1.2153156 2.2251675 -0.81523407 -1.7684585 -0.34437057 1.040544
-0.59561026 -0.096512325 0.6385579 -0.77359736 0.5548234 -0.13579203 0.06469817 -1.2519253
0.0416094 -0.037857868 0.7074522 0.12634857 -0.061817035 0.15490212 0.04172659 -0.08193143

fc1.bias f4 [128]
00000000: 9f48 7bbf e497 d83d 1c3b 6fbf 1a72 163d
00000010: d5cb 20bb 8a64 7fbf 9b11 573d 2197 803e
00000020: 0dc8 43bd aa82 2ebf d05e bbbf 2223 a73e
00000030: 4e0e fcbe afb6 28bf 1d62 91bf 2444 5ebf
00000040: 3449 693d 1f28 42bd d854 0fbf c9df 1dbf
00000050: f5cc 433e dd01 fabe 344b a5bf a948 88bf
00000060: f9ff 59bf a47c aebf 05f0 00bd 9f89 38bf
00000070: cbb3 4fbf 7e32 9cbf d9c7 16bf c962 aebf
00000080: 956c 083d 1dc6 e6be fea0 7fbf ab4d a43e
00000090: 4bbd 23bf d1e4 a53e 37e4 02be e285 c4bf
000000a0: 7e37 c0be 3ef8 85be 8351 38be 04f9 13be
000000b0: 8924 3dbf dd4b 07c0 3fcb 57be 2499 cfbe
000000c0: 5c27 02c0 b75a bb3e cf3d acbe a256 7b3c
000000d0: 2e3f 71bf 2139 fb3e 7c48 15bf 0371 6bbf
000000e0: 67cd 8dbf e376 c7bf b8e0 adbf 2d6e 02be
000000f0: 0196 6ebf 240c 103e c8f7 e2be 0b8b 65bf
00000100: 936f 023f a091 183f bd04 06be 18b7 0ebe
00000110: 1eda 11bf d910 e2be d9c7 b8be e3a3 a3bf
00000120: bb0d df3d 66a7 adbe 2fd0 29be d2bb 9ebe
00000130: 20cd b3be 5077 90bf ddbc 5cbf 632a adbf
00000140: 3581 f43e c847 d9bf a97a 21bf 8f07 13be
00000150: 66c8 d3be e25c a5bf 8af6 0ebf 457a a5bf
00000160: 4c58 ea3d 44ee c4bc 160f c4be 38d5 8fbe
00000170: 387c 8fbf 6112 7ebf a57a 2a3e 5ab5 7ebf
00000180: 5922 1abf aa15 063f 8d95 56bf a134 4cbf
00000190: c41b 3cbf d471 94bf ea3b 5dbe 757a 27bf
000001a0: 623d 71be 7a0d c4be a766 aabe 847d c5bd
000001b0: c753 08bf db74 a3bf 4c49 37bf f35d f43e
000001c0: 4f64 e8be 5b2e b1bf 0b18 8f3e 84f1 23bf
000001d0: 21b4 9fbd 62b3 88bf 8f3c 6e3e 8569 8bbf
000001e0: 667a edbe 050a 13bd 8937 233f 3d31 b83e
000001f0: b515 bdbe 9559 14be c476 d73d 2db5 a0bf
-0.98157686 0.10575846 -0.9344957 0.03672991 -0.0024535556 -0.99762785 0.052507024 0.25115302
-0.047798205 -0.6816813 -1.463831 0.32643992 -0.49229664 -0.65903753 -1.1358067 -0.86822724
0.056954578 -0.047401544 -0.55988836 -0.61669594 0.19121154 -0.48829547 -1.2913575 -1.0647174
-0.8515621 -1.3631787 -0.0314789 -0.72084993 -0.8113372 -1.2202909 -0.58898693 -1.3623897
0.033306677 -0.45073023 -0.9985503 0.32090506 -0.63960713 0.32401136 -0.1278237 -1.5353358
-0.37542337 -0.26165956 -0.17999844 -0.1445046 -0.73883873 -2.1140053 -0.21073626 -0.40546525
-2.0336523 0.36592647 -0.33640906 0.015340479 -0.9423703 0.49067023 -0.5831373 -0.9196932
-1.1078309 -1.5583156 -1.3584204 -0.12737341 -0.9319764 0.14067131 -0.44329667 -0.8966529
0.509515 0.59597206 -0.13087745 -0.13937032 -0.56973445 -0.4415348 -0.36089972 -1.2784389
0.10891291 -0.33916777 -0.16583322 -0.3100267 -0.35117435 -1.1286411 -0.8622568 -1.352856
0.47754827 -1.6975031 -0.6307779 -0.14358352 -0.4136383 -1.291897 -0.5584494 -1.2927939
0.114426225 -0.024039395 -0.3829276 -0.2809236 -1.1209784 -0.99246794 0.16648348 -0.9949547
-0.6020866 0.52376807 -0.83821946 -0.79767805 -0.73479867 -1.1597238 -0.21604887 -0.6542123
-0.23558572 -0.38291532 -0.33281443 -0.09643081 -0.53252834 -1.2770036 -0.7159622 0.47727928
-0.4538903 -1.3842272 0.2794803 -0.640404 -0.07798029 -1.0679743 0.23265289 -1.0891577
-0.46382445 -0.035898227 0.63756615 0.35975066 -0.36930624 -0.14487298 0.105206996 -1.255529

fc2.weight f4 [4, 128]
00000000: 99aa f3be 57fa a5be 505a 963f 6627 b63e
00000010: a787 37be 34a2 babe 3d4c 52bc f5c8 7fbe
00000020: f5ff 62bf f1de cc3e 3c3f 16bf 623b 6b3e
00000030: 1847 ba3e a804 adbf 2884 413e 69e9 75bf
00000040: 4748 dbbe df1e 8ebd a295 c43d 1a7e f7bd
00000050: 1619 543f 435a 3dbf 1cd5 993f c7a5 3bbf
00000060: 448a 0bbe 55d5 7e3e b986 0dbf 6bb1 18bf
00000070: 6ff5 f2bf fda6 0cc0 8877 9fbf 25a0 a13e
00000080: 5924 f4bd 8ded 8a3e 6d56 013f 4d45 733f
00000090: 746e a0bf 4c4a 89bf 607f 08be 5770 0b3f
000000a0: acee 053f 48ba 74be 1d58 e3bf d7da c5be
000000b0: c1be f23e d592 2a3e 0d93 593d 40cd 45be
000000c0: 1203 12bf ed2e f13e 5fed 42bd 3656 1ebe
000000d0: 3cad de3f a1e6 423d 673e 0c3f 73ca a7bf
000000e0: 7387 1a3f 5520 ed3e a8e7 e9be 00b1 7c3e
000000f0: 5a76 883f 8f87 603f 7b8d 493f 17db 8abe
00000100: 0eb9 433f a31b 55be d265 a03e bd4f f33f
00000110: c8a2 a23f a0d3 6bbf bebb 843f a454 4b3f
00000120: b8a0 10bf 8dce 2d3f 451a 143f ddf5 103d
00000130: c91a 15be b548 b73f 5b18 8fbc ad7d 0dc0
00000140: 63d2 b53e 3587 5fbf 236e 25be 9385 86be
00000150: 340e 243f c918 39bf ee13 5a3f 27bc c1bf
00000160: fda8 3e3f 9057 a7bf 17a4 813c 8713 5f3f
00000170: 6d37 bebe 40f6 c2be 23ba 253f 2c3d f4be
00000180: f4b1 cfbf 7bcf 143f 0314 053e 677f 74be
00000190: 1c1c 4e3f a8d1 e0be f560 ed3c ed15 443f
000001a0: 9b3e a43e 187e 093d eee4 debf f592 a63e
000001b0: 5ee7 7c3e 7d8a 8a3f 978e 233f 6dcc 4a3f
000001c0: 4f0d 22bf 6b86 84bd 016c cfbe 45d2 323f
000001d0: a516 503f 297c 673f 243e 173e 1c79 e7bf
000001e0: f0c3 893e 1b97 b3be 5011 733e 340f cbbe
000001f0: b686 6e3f 22a7 59bd bbf2 52be d72b e9bf
00000200: 58e5 943f 91e3 ccbf d7cb 713e 8eb2 9b3d
00000210: c35d 68bf f49f 613f 2710 5c3f 53ea 2fbf
00000220: 4dc6 a2be f599 063f 885b dfbe 9e83 6dbf
00000230: 21cf 7bbf 7b6d 7fbf 9251 773f c2d3 a8bf
00000240: 0859 09bd 0855 90bf ac62 95bd 6179 143f
00000250: 2116 80be 9bf6 983f b4c9 9a3e 3426 0340
00000260: 99a9 df3d efb2 bebf e167 d53f f645 05bf
00000270: 1920 88bf 0457 203f 65d5 c03d 6a2f c8be
00000280: 95c6 dfbe 0c12 a93f b67f 67be 25ae 47bf
00000290: a884 833f 8c19 61be a0a2 c7bd fac6 813f
000002a0: 4f98 263e d216 133e 7076 4f3f c4f8 debe
000002b0: 4193 ba3e ad4c e63e 762e 323f 84c5 573f
000002c0: 0647 e3bf a2da f43e e501 1cbf 0ef1 073e
000002d0: 316f 8abe d1c7 043e 8ac2 c73f 2a1c 7cbe
000002e0: 81bc b4be f8f4 1240 2678 babe 75d3 bf3e
000002f0: aa8b 933c 41c3 debd 518c b03f 7327 f7be
00000300: 04a9 643e be99 c3be 42b9 043f 160a 00bd
00000310: b9e4 933f 060f f1be 48f5 f93f 262f 573d
00000320: bac9 313e 7dd4 c33f 8a09 843f 050a 7b3e
00000330: 7ea3 afbc 89f2 f2be 2d70 19bf 2736 ec3e
00000340: 2429 3f3e fd75 febe a743 c4be bfa9 7bbf
00000350: 1870 903d b8fa 973f 4eed 3d3e 7b6e 033e
00000360: 8d88 7c3e 7032 323f 1ee6 55bf f7e7 b3bd
00000370: 0a3c 67be 1a23 013c b5c3 57bf b866 773f
00000380: 9e9d 41be 6a31 f8be 8f23 993f efb2 173d
00000390: 4bbd 93bf d1b9 34bd ddcc ad3d dfa2 663d
000003a0: 6213 8f3f 0e3b 3dbf 1bb7 a43f 06d7 1d3e
000003b0: 1282 b83d 798d 69bf 4487 f3be 60d3 dcbe
000003c0: 8bb4 1fbf 932d 06bf 8414 eabf b643 b33e
000003d0: 53ce 41bf 1364 babe 69a0 013f a712 833c
000003e0: 4e4a 393e 639d 88bf 77b4 053f ec8c 323f
000003f0: 337e 96bf 83ec aa3e f757 ccbe e624 e23c
-0.47591093 -0.32417557 1.1746311 0.35576934 -0.17922841 -0.36451876 -0.012835559 -0.24979003
-0.8867181 0.4001384 -0.5869024 0.22971871 0.36382365 -1.3517046 0.1889807 -0.9605928
-0.4282858 -0.06939482 0.09598853 -0.12084599 0.8285078 -0.73965853 1.2018161 -0.7329983
-0.13626963 0.24886067 -0.55283695 -0.5964572 -1.898115 -2.1976922 -1.2458353 0.31567493
-0.11920995 0.27134362 0.505225 0.9502762 -1.2533708 -1.0725799 -0.1332984 0.5446829
0.5231731 -0.23899186 -1.7761265 -0.38643524 0.4741116 0.16657574 0.053118754 -0.19316578
-0.57035935 0.47106114 -0.047589656 -0.15462574 1.7396617 0.047583226 0.5478272 -1.3108658
0.6036293 0.4631373 -0.45684552 0.24676895 1.0661118 0.87706846 0.7873151 -0.27120277
0.76454246 -0.20811324 0.31327683 1.9008709 1.2705927 -0.9211979 1.0369794 0.79426026
-0.5649524 0.67893296 0.57852584 0.035390723 -0.14560999 1.4319063 -0.017467668 -2.2107956
0.35512075 -0.87315685 -0.16155295 -0.26273784 0.6408417 -0.72303444 0.8518666 -1.5135545
0.74476606 -1.3073597 0.015825314 0.8713917 -0.37151662 -0.380785 0.6473715 -0.4770292
-1.6226182 0.5812909 0.12995915 -0.23876725 0.8051164 -0.43909955 0.028976897 0.76595956
0.32079014 0.033567518 -1.7413614 0.32533994 0.24697635 1.0823513 0.6388945 0.7921818
-0.6330156 -0.06470951 -0.40512088 0.69852096 0.8128455 0.9042383 0.14769799 -1.8083835
0.269073 -0.35076222 0.23737073 -0.39660037 0.931743 -0.053137906 -0.20600407 -1.8216504
1.163249 -1.6006948 0.23612915 0.07602416 -0.9076807 0.88134694 0.85962147 -0.68716925
-0.31791916 0.5257867 -0.4362452 -0.92778957 -0.9836293 -0.9977643 0.9660884 -1.3189623
-0.033532172 -1.127595 -0.07294211 0.5799771 -0.25016883 1.1950258 0.30232012 2.0492067
0.1092102 -1.4898356 1.6672326 -0.52059877 -1.0634795 0.62632775 0.09415702 -0.39098674
-0.43706194 1.3208632 -0.22607312 -0.780001 1.0274858 -0.21982402 -0.09747815 1.0138848
0.16269039 0.14364174 0.81040096 -0.43549168 0.3644047 0.44980374 0.69602144 0.8428576
-1.775605 0.47823054 -0.6094039 0.13275549 -0.27037957 0.12966849 1.5606244 -0.24620119
-0.35300067 2.2962017 -0.3641979 0.37466016 0.018010933 -0.108770855 1.3792821 -0.48272285
0.223301 -0.38203233 0.5184518 -0.03125962 1.1554176 -0.47081774 1.9527979 0.0525352
0.17362109 1.5299221 1.0315411 0.24515541 -0.021440264 -0.47450665 -0.5993679 0.46135065
0.18668038 -0.49699393 -0.38332865 -0.98305887 0.0705263 1.1873388 0.18547556 0.12835114
0.24661465 0.6960821 -0.83554256 -0.08784478 -0.22581497 0.007881904 -0.84283 0.9664111
-0.18907782 -0.484752 1.1963977 0.03703588 -1.1542143 -0.04412252 0.0848634 0.05630767
1.117779 -0.73918235 1.2868379 0.15414056 0.09009184 -0.91231495 -0.47564137 -0.43130016
-0.6238486 -0.5241329 -1.8287511 0.35012597 -0.7570545 -0.36404476 0.5063539 0.016000105
0.18094751 -1.0673031 0.5222849 0.6974628 -1.1757263 0.3338357 -0.39910862 0.027605485

fc2.bias f4 [4]
00000000: d1ff 8dbe 01f0 6d3e ab4a dd3d ece0 a9bd
-0.27734235 0.23236085 0.108052574 -0.082948536
