checkpoint_critic.pth (torch_old, 435404 bytes, 7 tensors)

fcs1.weight f4 [256, 33]
00000000: 10cd ffbe 3806 8c3e 47f3 033f 916c 08be
00000010: 9093 03bc 5ec2 e5be a2e5 9e3e 5d98 983b
00000020: 27c1 85be df8b 993d ce42 43be 74a3 eabd
00000030: 7ee7 40bc 547c 473e 0f5c ffbc e087 65bf
00000040: d69c bbbe f5b4 8fbe b74e 91be 5e55 4fbe
00000050: 293c e93b 587b 6bbd aa06 f33b 0aac 7f3d
00000060: 9a5d c13b b568 8bbe 71b8 fabd 9a33 463e
00000070: cfd6 3d3f c073 973a 0e33 7abe 1a9d 623d
00000080: 5ba8 1640 9dfb b6be 2259 9fbe 9a7d 88be
00000090: 39ef 7ebf 074d ec3e 8be0 e03e 090d 8b3f
000000a0: 5057 a53c 0575 9bbf 4a3d c5be 3707 c33d
000000b0: 503b a53d a544 833e 3cd9 c8bd bbf2 8b3e
000000c0: adc8 e23d 4e10 e3bf 846a c2be f54c 2bbe
000000d0: ebaf f23b 37f2 09be 6c79 2f3c 84f2 913d
000000e0: fea4 4b3e a9df 313e 00b6 47bd e253 f9bd
000000f0: 9501 583f 3676 503e a698 4dbd 8d78 56bf
00000100: d640 53bd 16a6 e33e 7eaa 7e3e 4c71 bcbe
00000110: 13d5 93be f82e 663f 1cb4 b33f 4c0c b0bf
00000120: 2fed 483f c455 0dbd 7cbe 2e3f af58 f03e
00000130: c781 0c3a 479a cd3d 2eb7 f23d 99ba 0c3f
00000140: 3c73 953f 801a c8bd 6cf0 403f e1e4 493f
00000150: 477f dfbe c9ca 073e 3ac3 9f3e 7ce7 12be
00000160: 64f4 8a3e 88bb 693e 5de2 a33e 4fa0 83bd
00000170: 6222 99be 7c8d 383f ece8 ed3c 6012 4dbb
00000180: d18a 30bf 98ff a73c e0c6 c03f b06b ac3e
00000190: 6713 c9be 72fc 89be 8b42 c4be 019b 273f
000001a0: 812a 6dbe 0156 98bf 9e09 343e c2a6 bb3e
000001b0: f6ba 143c b66c a7bc daf3 acbd 364c a03d
000001c0: 110a 8cbe ce49 ab3e 5faa 0d3c 7d3e 533f
000001d0: 0e81 2f3e df0e 893f 2fa6 453e 6b5c 05be
000001e0: 66c3 9cbe 88bd b83e 24d3 2ebe b4e1 383c
000001f0: 1a5b 033d 359a 62be db46 aa3e f80c b53e
00000200: f01b 7d3d bc5a 6fbe e0dd e0bc ff68 083f
00000210: 267c 673e d683 b83e f842 12be 4d72 27be
00000220: 70b5 a33e 7300 d53f 6510 61bf 0c10 323d
00000230: 8a49 0ebe 70c9 5bbd c622 8cbc 1520 da3d
00000240: 3d27 7bbd 90c4 a2be 992c 72be 0101 bbbc
00000250: b705 bdbe 334b a8be b781 66bf 6d9e 8fbe
00000260: e40c aabc 661d d73d 6093 833b df73 53be
00000270: 9d4a 01be 1054 793d fcb8 d83e 5d74 1b3f
00000280: c691 76be 50f5 a63c 591f 12bf 38e1 4fbd
00000290: e3d5 2dc0 692a 98be 81a4 e53d 3acf d73e
000002a0: 93d3 8e3f c2c1 2e3f cf0b c53e b94c 03be
000002b0: 40e8 453d 4e28 8fbe ab97 363e 5793 9abc
000002c0: 283e 6a3d 8e08 753e f5be 723e df46 3cbe
000002d0: 860b 9f3d a92c b1be 5ca9 9a3f 1e8a 6f3f
000002e0: 8e87 323e 0eda a13c 6aaf 383b 2b0d 2b3d
000002f0: e151 963d 9c53 1ebe 0c54 373e 5ba7 87bc
00000300: a996 ff3e 20b9 07be e07b dd3c 4c97 debe
00000310: 1078 85bb 1c28 36bf dad1 15be 6527 f43e
00000320: e9bb 4fbf e7c7 9dbe aa6d 65bd a12b 81bd
00000330: bfec 8fbe 907d 2cbe 4eb6 0dbf cc90 b1be
00000340: 9b4e 2fbe 71a9 553d d2bc 0dbe c5e2 6dbe
00000350: 09c2 43be af0f 2f3f 8dec 863d c56c ce3e
00000360: e48a 923f 691a 67be f61e 943b 2a60 e63d
00000370: 72ab 52bc 598b 79bd 24a7 66be 6209 343e
00000380: ccfa 043e 118e f63e 85aa d4be ead8 5e3d
00000390: ce24 04bf 7a0c 1fbd 9d30 02c0 7407 483e
000003a0: b883 333e b000 ebbd bf7c 30bf ec9d 7d3f
000003b0: 1e72 ac3e 375f 8c3f e730 d1bd 9328 a8be
000003c0: 379b 80be a4d8 133e 0159 e8bd f971 36bd
000003d0: cc89 5c3e 96d8 49bd 8274 813c f11e 7dbe
000003e0: 42a2 9d3f fdf5 56bf c635 853f cc7e 43bc
000003f0: 618b af3d 6d16 0fbe a296 16be 602b c2bd
-0.49961138 0.27348495 0.51543087 -0.13322665 -0.008030787 -0.44874853 0.3103457 0.004656835
-0.26123926 0.074973814 -0.19068453 -0.114569575 -0.011773942 0.19481021 -0.031171827 -0.89660454
-0.36643094 -0.28067747 -0.28380367 -0.20247409 0.0071177674 -0.057490677 0.007416566 0.06241993
0.0059010508 -0.27228323 -0.12242211 0.19355622 0.74155897 0.0011554882 -0.24433538 0.055325605
2.3540256 -0.3573884 -0.3112269 -0.26658326 -0.99583775 0.46152517 0.43921313 1.0863353
0.020183235 -1.2145087 -0.38523322 0.095228605 0.080679536 0.2563831 -0.09807059 0.27333626
0.11073432 -1.7739351 -0.3797189 -0.16728576 0.007406225 -0.13471304 0.010710102 0.07126334
0.19887158 0.17370476 -0.048757553 -0.121742025 0.84377414 0.20357594 -0.050194405 -0.83777696
-0.051575504 0.4446265 0.24869725 -0.3680519 -0.288735 0.8991542 1.403934 -1.3753753
0.78486913 -0.03450562 0.68259406 0.4694266 0.00053599145 0.10039192 0.11851345 0.54972225
1.1675792 -0.097706795 0.75366855 0.78864866 -0.43651792 0.1326095 0.31203634 -0.14346117
0.2713958 0.22825444 0.3200864 -0.06427061 -0.29909045 0.7209089 0.02904173 -0.003129147
-0.6896182 0.020507619 1.5060692 0.3367591 -0.39272615 -0.26950413 -0.38332018 0.6547089
-0.23160745 -1.1901246 0.17581794 0.36650664 0.009077778 -0.02043758 -0.084449485 0.07827036
-0.2735143 0.33454746 0.008646577 0.82517225 0.17139074 1.0707663 0.19301675 -0.13023536
-0.30617827 0.360821 -0.17072731 0.011284281 0.032069303 -0.22129138 0.33257183 0.35361457
0.06179422 -0.23374456 -0.027449548 0.5328521 0.22605953 0.36038083 -0.14283359 -0.16352196
0.31974363 1.6640762 -0.8791564 0.043472335 -0.1389524 -0.053658903 -0.017106425 0.106506504
-0.061316717 -0.3179059 -0.23649825 -0.022827627 -0.36918423 -0.32869872 -0.9004168 -0.28050557
-0.0207581 0.10503654 0.004015371 -0.2064967 -0.12626119 0.060871184 0.42328632 0.6072443
-0.24079046 0.020380646 -0.5707908 -0.050751895 -2.7161796 -0.29719856 0.11213017 0.4215029
1.1158317 0.682644 0.38485572 -0.12822236 0.048317194 -0.27960438 0.17831294 -0.018869085
0.057188183 0.23929045 0.23705657 -0.1838641 0.0776587 -0.34604385 1.2082934 0.93570125
0.17434523 0.019757297 0.0028180727 0.041760605 0.07339836 -0.15461582 0.17903155 -0.016559293
0.49919632 -0.13254213 0.027036607 -0.43474805 -0.0040731505 -0.7115495 -0.14630833 0.47686306
-0.81146103 -0.30816576 -0.056012787 -0.0630715 -0.2811031 -0.16844773 -0.553563 -0.34680784
-0.1711983 0.052163545 -0.1384156 -0.23231037 -0.19116987 0.68383306 0.06588087 0.4031736
1.1448636 -0.22568668 0.0045202924 0.112488106 -0.012858259 -0.060923908 -0.22524697 0.17581704
0.12986296 0.48155263 -0.41536346 0.054406084 -0.5161866 -0.038830258 -2.0342171 0.19534093
0.17530715 -0.114747405 -0.6894035 0.99069095 0.33680815 1.0966557 -0.102144055 -0.32843456
-0.2511842 0.1443811 -0.11345101 -0.044542287 0.2153694 -0.049278818 0.015802626 -0.24718834
1.2315142 -0.839691 1.0407035 -0.011932086 0.08571506 -0.13973399 -0.147059 -0.094809294

fcs1.bias f4 [256]
00000000: 8d2d 8bbe f22d 61bf 0d63 08bf 2301 b1be
00000010: 0318 f8be 6244 e5be e0ec 24bf 08ad 9abe
00000020: aeb0 34bf 1633 ecbe 0218 01bf f7fc 0dbf
00000030: 40dd 1fbf c1d6 11bf f529 81be fcc2 15bf
00000040: c9c1 54bf f220 d7be 7959 30bf 1fe1 bdbe
00000050: c20a 2ebf 0cd1 93bf 179a fdbe 239c 56be
00000060: 592c 23bf f47d b3be d6b8 27bf 2e72 7ebf
00000070: 11eb 0ebf bf88 44bf dd76 efbe 4456 05bf
00000080: 7eda 44bf 1576 97bf c240 61bf 4ad5 83be
00000090: 35f9 0dbf 6fa8 02bf 4537 a6be 9bc1 19bf
000000a0: 2fb1 64bf ba18 6ebe 8d75 04bf 4269 debe
000000b0: b073 05bf 71a2 d7be d1b4 40be 1fc3 4ebf
000000c0: e6da abbe 5026 f3be aefe a7be adf0 f3be
000000d0: ef5a bbbe d49b a1bf 65b2 75be 4866 15bf
000000e0: 52c9 0fbf 9a75 4cbe 7253 3dbf 275d 47bf
000000f0: 0db3 f1be b2f8 85bf 68be 5ebf f7c7 83bc
00000100: 847d cdbd 1e0c fcbe fc37 24bf ab7a 52bf
00000110: c57c e6be 715a 41bf 1e5f 12bf 45a9 43bf
00000120: fed7 1dbf b3dd 52be 8745 78bf 67fe 7fbf
00000130: 4942 3dbf 151a 3bbf 7ba6 1abf 4062 5fbf
00000140: cfe3 d4be 662e 86bf 21ec cfbe 8c84 06bf
00000150: 0f97 95be 6712 8fbe cb8c ddbe 71c3 83be
00000160: cb4e 44bf 91c8 47bf c2e3 d5be 3973 febe
00000170: 739d 15bf 66c4 2dbf 70ec 1cbf 6a0e e4be
00000180: 84f0 5dbf dc68 89be a0c5 31bf fcc2 bdbd
00000190: fdd4 33be 28f7 35bf 9ede 39bf 7d69 ddbe
000001a0: 3c3a 16bf 33fe 8cbf 3c51 46bf 3504 14bf
000001b0: e64c 04bf 0ae3 1cbf cd20 09bd 6458 6ebf
000001c0: dbdd 76bf 1d39 06bf 97d2 52be b478 2abf
000001d0: 82f6 11bf 9882 5bbf ced7 73be ff1d 53bf
000001e0: 6c57 1fbf ddc9 0bbf a03d 1abf c467 fd3c
000001f0: c280 bbbe 8d7c 56bf 9a5d 33bf 2f2e 66bf
00000200: 6eaf dfbe 4eb2 5bbf 4b7e 47bf 5c7a 26be
00000210: cabc 6bbf 350e fbbe 32ed 9dbe d490 24bf
00000220: 3b66 3dbf 8269 75bf 96c9 15bf 5ef9 87be
00000230: ca9e 98bd 5564 8bbe 235a 17bf 3d8a 27bf
00000240: 98cc 6fbf 95b4 47bf e82d 5fbf c79e abbe
00000250: 4972 16bf b6a9 f0be a88c 40bf d1d5 78bf
00000260: 214d 63bf 4295 70be 756c 5cbf c8e3 12bf
00000270: 8309 f9be bfb5 bebe 442b 53bf 519b 1dbf
00000280: 5bc1 0abf 8c78 5cbf f346 b1be 7a3a 1abf
00000290: 1299 95be dd83 053d 08c0 41bf 120e 8abf
000002a0: cd1c bcbf 70c1 e8be 7d0b 1ebf 81d1 a3be
000002b0: 5505 32bf d2ac 0abf dd95 4ebf 8018 39bf
000002c0: 11bc 19bf 9ecd 65bf 4ca0 56be 2ef4 39bf
000002d0: da07 ddbe d6dc 06bf fca3 42bf aa14 59bf
000002e0: 2c3f 60bf 5ed5 61bf 6aca 17bf 3ca4 5abf
000002f0: 1f1c 10bf 0025 f7be 50b9 7bbe 09ff 8ebe
00000300: f4ae f7be d765 01be 15a1 59bf 4f36 d7be
00000310: 864e 1ebf b5e9 49be d82c 29bf fdf3 7abf
00000320: 06fa 4ebf 9c51 40bf 857a 34bf adb0 edbe
00000330: f270 35bf 9631 55bf 0bf4 6cbf b827 2cbf
00000340: a17e 19bf b341 8bbe 5bbd 62bf 0c91 9ebe
00000350: d240 27bf cd55 38bf 80a5 09bf 25c2 1cbf
00000360: b3d4 66bf d3cc 1abf a803 17bf 9767 19bf
00000370: 6843 f8be 2838 56bf 8962 30bf 1f6a 9cbf
00000380: 9a46 37bf 52c9 fbbd bbd6 4dbf c97c 7bbf
00000390: a371 0cbf 2f78 27bf 6dea 85be 1df7 31bf
000003a0: a1b2 78bf d560 25bf 11c2 34bf a4df 41bf
000003b0: ef1d 05bf 987c bebe dea1 19bf 296d 4ebf
000003c0: 32b3 2dbf 8103 1ebf 14dc 35bf ed93 4fbf
000003d0: 937f d7be 2672 38bf cb0b 41bf 14c1 07bf
000003e0: 4917 39bf 39b2 27bf 6090 dbbe 4d4b 3fbf
000003f0: 7545 36bf bfaf 16bf 9960 1fbf 6988 2bbf
-0.2718319 -0.8796073 -0.5327614 -0.3457118 -0.4845582 -0.44778734 -0.6442394 -0.30210137
-0.7058209 -0.46132725 -0.5042726 -0.5546412 -0.62446976 -0.56968313 -0.25227323 -0.5850065
-0.8310819 -0.42017323 -0.68886524 -0.37085816 -0.67985165 -1.1548171 -0.49531624 -0.20957999
-0.63739544 -0.35057032 -0.6551641 -0.99392974 -0.5582743 -0.7677116 -0.46770373 -0.52084756
-0.7689589 -1.1832911 -0.8798944 -0.25748664 -0.55458385 -0.5103826 -0.32464042 -0.60061044
-0.8933286 -0.2325162 -0.5174187 -0.4343968 -0.5212965 -0.4211612 -0.18818976 -0.8076648
-0.33565444 -0.47490168 -0.32811493 -0.4764456 -0.36592814 -1.262568 -0.23993833 -0.58359194
-0.56166565 -0.19966736 -0.7395545 -0.77876514 -0.47206917 -1.0466521 -0.87009287 -0.016086562
-0.10033706 -0.49227995 -0.64147925 -0.82218426 -0.45017067 -0.7552863 -0.5717639 -0.7643016
-0.616577 -0.20592384 -0.9698109 -0.9999756 -0.7392927 -0.73086673 -0.6041028 -0.8725929
-0.41580054 -1.048291 -0.4060984 -0.52546 -0.2921681 -0.27943727 -0.4327148 -0.25735047
-0.7668273 -0.78040415 -0.41775328 -0.49697283 -0.58443373 -0.67877805 -0.61298275 -0.44542247
-0.8669512 -0.26837814 -0.69442177 -0.09265706 -0.17561717 -0.71080256 -0.7260531 -0.43244544
-0.5868261 -1.1015075 -0.77467704 -0.5781892 -0.5167984 -0.61283934 -0.033478547 -0.93103623
-0.96432275 -0.524309 -0.20588146 -0.6659043 -0.57016766 -0.85746145 -0.23812792 -0.82467645
-0.6224277 -0.54604894 -0.6025028 0.030933268 -0.36621672 -0.837838 -0.700647 -0.8991422
-0.4368853 -0.85818946 -0.7792708 -0.16257614 -0.92084944 -0.49034277 -0.30845028 -0.6428349
-0.73984116 -0.9586412 -0.5851072 -0.2655744 -0.074521616 -0.27224985 -0.5912191 -0.6544531
-0.9367156 -0.7800992 -0.8717942 -0.33519575 -0.58768135 -0.4700448 -0.75214624 -0.9720126
-0.88789564 -0.23494437 -0.8610299 -0.57378817 -0.4864007 -0.37248036 -0.82487893 -0.6156512
-0.5420129 -0.8612144 -0.34624442 -0.6024548 -0.29218346 0.032596458 -0.7568364 -1.0785544
-1.4696289 -0.4546008 -0.6173628 -0.31995776 -0.69539386 -0.5416995 -0.80697423 -0.7230301
-0.6005259 -0.8976687 -0.20959586 -0.72638214 -0.43170053 -0.5268072 -0.7603147 -0.84797156
-0.8759639 -0.882162 -0.59293234 -0.8540685 -0.5629291 -0.48270416 -0.2458241 -0.2792895
-0.48375666 -0.12636505 -0.85011417 -0.42033622 -0.6183857 -0.19718058 -0.6608405 -0.98028547
-0.80850255 -0.75124526 -0.7049945 -0.46423855 -0.70875466 -0.8327879 -0.9255988 -0.67248106
-0.59958845 -0.27198562 -0.88570184 -0.30970037 -0.6533328 -0.7200592 -0.5376816 -0.6123374
-0.90168303 -0.60468787 -0.58989954 -0.5992369 -0.48488927 -0.8367944 -0.6890035 -1.2219886
-0.71592104 -0.12294258 -0.8040578 -0.9823728 -0.54860896 -0.6541776 -0.26155415 -0.6951769
-0.97147566 -0.6460088 -0.7060862 -0.75731874 -0.519988 -0.37204432 -0.60012615 -0.80635315
-0.67851555 -0.61724097 -0.7103894 -0.8108509 -0.4208952 -0.72049177 -0.7540862 -0.5302899
-0.72301155 -0.6550632 -0.42883587 -0.74724275 -0.71199733 -0.5886192 -0.6225677 -0.6700502

fc2.weight f4 [256, 260]
00000000: 010e 2d3d bcd5 fabe 6384 583f dcf2 88be
00000010: c19d 843e 4fb8 f43e 8b8f 573d fb5c 6dbe
00000020: c31b 97be a8df 33bf 6d2d 163e 5717 793e
00000030: 5e40 8fbd 73dd 60bd 5cb2 20bf 80a6 dd3c
00000040: 3127 4dbe ea04 1bbf acce 83be 7879 a7bf
00000050: bc6f b7be 6323 c33c 6ff3 95be e04c c1be
00000060: ef84 2dbf 4f95 41be 7116 d4be 07ad 8fbe
00000070: 95e5 813c 85be e23e b665 26bd 8a25 10c0
00000080: b613 42bf da0d 083e 9035 a2bd 5cc6 0a3f
00000090: 9261 42be becc 6f3e 5789 adbf 05b3 0abd
000000a0: 339c 383f e3ac 293e 312a 20bf d34e a73e
000000b0: 4b41 63be 180e 8a3e 6fca a9bd 4bf0 ec3d
000000c0: 1e8e c13d be4e 943e efa4 e13e 93bf b4be
000000d0: 8694 98bd dffa cd3d 1c18 c1be 735f 143f
000000e0: 462b cabd 5520 af3e eeb6 6fbe a678 3cbe
000000f0: 24b9 38bf 4cc7 6cbf 6a86 18be 4f0c cebe
00000100: 23eb 313f e48f 45be 743f 97be 54fb cfbe
00000110: 54d5 863d edf1 0c3f c25b b2bd aafa 1b3e
00000120: 816c 96be 0237 58be 6534 24bf ea54 083e
00000130: ff86 8c3e 9ef6 d7be 145a d2bd 5e2e 5d3f
00000140: 200b 813e 1032 03bf 88b2 16bf e642 1f3f
00000150: 6f1b e4be 7313 85be 4836 95bc aa06 303e
00000160: 880a e7be 02a5 cbbe 9582 27bf f8e0 91bd
00000170: 2a91 3bbe 5e9c c0be 49a9 93be 9787 27bf
00000180: 7ef1 3c3e 0c0d 2cbf da38 ac3e ae1f 52bd
00000190: efd3 863e e664 0ebf d5cb 60be f869 c1bc
000001a0: 142f 1cbe ffc2 9cbe f8d0 823d 41e8 c7be
000001b0: 37b7 b73e 6fb2 a83e 3d2a 66bc f629 2c3e
000001c0: 8727 69be 29b7 a0be 1ae7 223f 4924 8ebe
000001d0: 87c9 edbe 6902 85be b16e 83bc b132 9ebf
000001e0: 91f5 263e 6d11 9c3e 9dfa 153f 6811 febe
000001f0: 9f36 aebf 03b2 83bf 45a6 a3be e65f b6bf
00000200: 2705 783e 0e3e b6be 9b16 edbe 3976 31be
00000210: 8d65 8cbe c5f9 7abe f0d2 91be c8fd a5bd
00000220: dfab 82bd c5ca a0be 16f4 33bf 8e22 c2bd
00000230: 154d c33e 0ade 1bbf d776 4fbd 6cb5 153f
00000240: b9c2 60be fe6c a9bd eab1 cd3e ff0e 3d3d
00000250: 5174 a3be a9ea 94bd 040a 00bf 32dd 0ebf
00000260: 6b88 ebbd 7beb 05bc 1c9d e93e e8b6 15be
00000270: cd9c acbe 8bb3 d1be 10b5 1fbe a1fd ab3e
00000280: a771 893d 6677 3ebf 65dc d7be afb2 01be
00000290: 2113 073f 3868 a43e b165 313d 8928 253e
000002a0: 8574 8bbe 9378 5d3d 7825 b4be 0152 b53d
000002b0: 70a3 093e 4544 ddbe a7e5 763e 4baf c8be
000002c0: 8527 013f 68ad 33bf 10ab dd3d 7dea 853d
000002d0: 8278 a3bd 1d2e 2fbd 2d5f d03e 56b5 ddbe
000002e0: 27d7 95be 2db5 a5be 501a 943e d402 bcbe
000002f0: 107f 663e f758 4cbe f1b3 953e 578c 9bbf
00000300: c25a 873e 4517 833c 7120 df3e ab62 4ebf
00000310: 2c11 22bd 7df4 e0bd 9d53 033e 48a1 693e
00000320: ac2f 86bf 4c89 8b3e d599 4c3e e821 7f3e
00000330: 2c40 863e 6ecb 083f 1159 343e 2238 babc
00000340: 1156 dbbe 8bf0 b8be 9920 123e 6bee f9bd
00000350: 1edc fe3e b27b b9bb 2eab 033d 84ab 33be
00000360: 5892 ed3d 9d53 2c3e f15b b33e b096 263e
00000370: 51c7 d33d d2fa 383f 65e2 ed3e 97e9 623e
00000380: b063 e13e f2a0 31be 852e 25be 545b 9c3e
00000390: 3710 32be 2b4e debe 7571 0abf 5e34 953e
000003a0: 975c 8a3d 4424 25be f787 debe e452 4bbf
000003b0: fe9f 33be a70c 88bd af51 aa3d c7da 383e
000003c0: c76a 34bf 8ea3 8dbd 471a 16be 8b70 f33e
000003d0: 8333 543e 8709 543e ce8a 6dbe 6216 a93e
000003e0: 64d5 3e3e 26a6 743e 8270 eb3e f64d a83a
000003f0: b5c6 e93d 0810 aa3e 7dc2 8b3e 8210 15be
0.042249683 -0.4899119 0.84577006 -0.26747787 0.25901607 0.47796866 0.052627128 -0.2318
-0.29513368 -0.7026315 0.14665766 0.2432531 -0.06994699 -0.05489869 -0.62772155 0.027056932
-0.20034482 -0.60554373 -0.25743616 -1.3083944 -0.35827434 0.023820585 -0.29287288 -0.37753963
-0.67780966 -0.18904613 -0.4142337 -0.28061697 0.015856544 0.4428598 -0.040624343 -2.2522912
-0.75811327 0.13286534 -0.079203725 0.5420892 -0.18982533 0.23417947 -1.3557538 -0.033862133
0.7211334 0.16569857 -0.6256438 0.32677326 -0.22192876 0.26963878 -0.08290564 0.1156927
0.09450935 0.28966326 0.44071147 -0.3530241 -0.074502036 0.100576155 -0.37713706 0.57958144
-0.09871535 0.34204355 -0.23409626 -0.18405399 -0.721575 -0.924916 -0.14895025 -0.40243766
0.69499415 -0.19293171 -0.29540598 -0.40621436 0.06583658 0.5505665 -0.08708908 0.1523234
-0.29379657 -0.21114734 -0.6414245 0.13313642 0.27446744 -0.4218034 -0.10271087 0.86398876
0.252038 -0.51248264 -0.5886617 0.62211454 -0.4455218 -0.259914 -0.01821436 0.17190042
-0.45125222 -0.39774328 -0.6543363 -0.071229875 -0.18317094 -0.376193 -0.28840092 -0.6544127
0.18451497 -0.6720741 0.33637124 -0.051299743 0.26333568 -0.5562271 -0.21952756 -0.0236101
-0.15252334 -0.3061752 0.06387514 -0.39044383 0.3588197 0.32948634 -0.014048156 0.16812882
-0.22768985 -0.3138974 0.63633883 -0.27762058 -0.46442816 -0.259784 -0.016043993 -1.235922
0.16304614 0.30482045 0.5858553 -0.49622655 -1.3610419 -1.02887 -0.3196279 -1.4248016
0.24220715 -0.3559422 -0.4630631 -0.17330255 -0.27421227 -0.24509342 -0.28481245 -0.081050456
-0.06380438 -0.314047 -0.7029432 -0.09479247 0.38144746 -0.6088568 -0.050650444 0.5847995
-0.21949281 -0.08272742 0.401748 0.04615688 -0.3192468 -0.072713204 -0.5001528 -0.5580627
-0.11500629 -0.008173819 0.45627677 -0.14620554 -0.3371338 -0.40957293 -0.15596414 0.3359194
0.067111306 -0.7440094 -0.42160335 -0.12665819 0.52763563 0.32110763 0.04330987 0.16128744
-0.27237335 0.054070067 -0.35184836 0.08853532 0.13441253 -0.43216148 0.24111043 -0.39196238
0.50450927 -0.7018647 0.10823643 0.06538866 -0.079819694 -0.042768586 0.40697613 -0.4330241
-0.2926571 -0.3236479 0.28926325 -0.36720908 0.22509408 -0.19955812 0.29238847 -1.2152203
0.2643643 0.016002307 0.43579438 -0.80619305 -0.039567158 -0.109841324 0.12824865 0.2281543
-1.0483298 0.27253187 0.19980557 0.24915278 0.26220834 0.5343541 0.17612101 -0.022731844
-0.428391 -0.3612102 0.14270248 -0.12203678 0.4977731 -0.0056604976 0.03214567 -0.17545897
0.116001785 0.16828771 0.35031083 0.1626842 0.10340751 0.7225772 0.46461788 0.2215942
0.44021368 -0.17346552 -0.16131027 0.30538428 -0.17388998 -0.43419012 -0.5407937 0.29141515
0.06755941 -0.16127115 -0.43463108 -0.79423356 -0.17541501 -0.06643038 0.08316361 0.18052207
-0.7047543 -0.06915961 -0.14658462 0.475468 0.20722775 0.2070676 -0.23197481 0.3302489
0.1863609 0.23891506 0.45984274 0.0012840617 0.114148535 0.33215356 0.2729682 -0.14557078

fc2.bias f4 [256]
00000000: 4743 40bf 64a0 38bf 992f 643e cd2e 19bf
00000010: edda 173f 5b86 a7bf 429f 7d3d c243 81bf
00000020: 6e1b 86bf cfea 733e 4a31 2f3f dc40 d0bf
00000030: 0146 69bf f4f1 36bf ba70 f8be fc5e 61bf
00000040: 2258 b1be 0366 ffbe 7992 bb3e 411b 153f
00000050: f15e b93d 2678 53bf 1b1e 3b3f 436a 273e
00000060: d6d9 38bd 5fe8 bd3e 3124 7cbe 8bf1 2b3f
00000070: af17 323e b1b0 17bf 9538 463d b5d8 d0bd
00000080: 5040 053f 2792 013f 0b89 d4bf 9ed1 313f
00000090: 569a f73e 04e8 2bbf d566 a9be c067 553f
000000a0: 7fff b5bf 50ef 1dbf 9e92 56bf d7f1 8bbf
000000b0: 9cb7 ddbe 82e9 aabf 3bfd 93be 1541 6cbf
000000c0: 6fbe c5bf 6e9b c9be 350f 9bbf 8c4e 433e
000000d0: ac1e 97bf 8f2a b23c fd28 30bf 767d 94bf
000000e0: 82b1 84bf d416 95bf c16c 4b3e a120 40be
000000f0: 114c 33bf 9cc2 b7bf 4e7f 2d3f 13de f5bd
00000100: 9291 753f 21be 3c3e b1a9 873e 563e a5bf
00000110: f170 7ebf 5199 af3e eb90 d53d 9e35 5abf
00000120: 574a 9fbe a229 9ebf e156 a6bf 2511 8ebf
00000130: a96f b7be 0461 59bf 65db 0bbd 98cb 57bf
00000140: a06b b5bf 4224 f73e bbb7 293e d219 f6bc
00000150: fa2f 24bf 8e5c 8ebe b1c1 023f 191e cb3b
00000160: 2754 e5bf ea56 ce3e 074a a13d b6cc ecbc
00000170: 69b0 0cbe f867 80bf 595e f9bf 1402 f03d
00000180: dbf7 703c 0ec3 26bf ab49 9a3e a731 333e
00000190: 08a9 49be e0ee 68bf cdd3 27bf 251c 4e3e
000001a0: a809 a13d ff78 aabf 3b8b 58bf 5dff 3b3f
000001b0: ac3a 463f baf4 82bf 3db3 e1be 77f3 58bf
000001c0: dad7 ebbe 4a6f 0ebf f889 b6be b656 19bf
000001d0: fce0 62be d3f5 0d3e 8e97 8bbf acdd edbe
000001e0: f172 c3bf 9c37 09bf 6086 f13d c4a8 0cbf
000001f0: cd32 3b3e e852 85be d666 8cbe c621 6cbe
00000200: 3020 39bc cdf6 993f 2aa2 c6be 7f6f 733f
00000210: 9051 27bf 919e 4d3e ea4f 63bf 78d6 8dbf
00000220: 963a 54bf 5400 bb3d d091 19bf a1d6 89bf
00000230: 22ed 7bbf 576b 09bb a74a 423f 4522 97be
00000240: 7981 34bf bb35 0abf 48dd f73d 2776 39bf
00000250: 11f4 c3bf ca63 7abf 6784 05bf 2977 58bf
00000260: 0af4 eebb 6adc 82bf 68e8 533f 9fe2 8ebf
00000270: 8863 a53e fa31 80bf 3fd6 8dbe ec54 9c3e
00000280: b448 5fbf 4ae9 27bf 6812 8ebe 9b1f e8be
00000290: cd31 203e 157e 04c0 90ce 3cbc 5481 76bd
000002a0: 949a 0bbf 9c1d 643d 858c 793e 417f 90be
000002b0: 5a43 87bf 8de6 c93d 0b00 7bbf 3165 74bf
000002c0: 009a 87be 73b2 7ebe 2572 54bf 9da0 73bf
000002d0: d4e1 b4be eff1 7bbf 2003 92bf 5d8e 6bbf
000002e0: af64 023f 5fb8 dc3c a941 3fbe 636c 4d3f
000002f0: 408c 753f 9a9a 95bf 64ae 903e dd1d 36bd
00000300: 4071 3f3e bd5b 41bf 2e5a 83bf 68e2 2bbe
00000310: 9aad f73e deda b33f 87d4 0b3f 7ff1 09bf
00000320: dc05 52bf 1a1e a53e 9571 bebe f4e8 ef3e
00000330: 5f13 86bf 1c4b c83e 1bca a9bf 831d 80bf
00000340: 0a57 45bf 7ff1 05bf 4094 4c3f aa4c b0bf
00000350: 4dca 12bf e057 203c 3492 97bf 39f3 dcbc
00000360: d30a 87be bd8f 40bf 5fc1 2cbf 6a28 f1bc
00000370: 48e0 98bf 0088 b3bf a786 2d3f 6067 96bf
00000380: a598 a5bf 5507 90bf 329a 96bf a359 b5bf
00000390: c48a 55bf 20b8 503f b337 83be 98c7 d3be
000003a0: 0413 40be 4863 a2bf d125 44bf c16e 45bf
000003b0: 6776 1f3d 8b29 ddbe 68f7 0cbf e8c9 fdbe
000003c0: b637 213f 9463 1f3e 2906 d7be b679 1d3e
000003d0: 13d1 73bf 65bf a1bf d64b f3be de38 71bf
000003e0: 42e7 a3bf fab5 0abf 6c10 7cbf 2ef5 55bf
000003f0: 5f2e 683e 38f7 87be 12f7 14bf 4b19 dfbf
-0.7510266 -0.72119737 0.22283782 -0.5983704 0.5931843 -1.3087877 0.06191946 -1.0098803
-1.0477121 0.23820041 0.68434584 -1.6269794 -0.9112244 -0.7146294 -0.48523504 -0.8803556
-0.34637552 -0.49882516 0.36635187 0.5824471 0.09051312 -0.82605207 0.7309281 0.1634913
-0.04512962 0.37091348 -0.24623181 0.6716544 0.17391847 -0.59253985 0.048393805 -0.101975836
0.5205126 0.50613636 -1.6604322 0.69460475 0.48359936 -0.671509 -0.33086267 0.83361435
-1.4218596 -0.61693287 -0.8381747 -1.0933179 -0.43304145 -1.3352511 -0.28904137 -0.9228681
-1.5448741 -0.39376396 -1.2114016 0.19072932 -1.1806235 0.02174881 -0.68812543 -1.1600788
-1.0366671 -1.1647592 0.19865705 -0.18762447 -0.70037943 -1.4356265 0.67772377 -0.12005248
0.9592525 0.18431903 0.26496652 -1.2909648 -0.99391085 0.3429666 0.104280315 -0.85238063
-0.31111404 -1.2356455 -1.2995263 -1.1098982 -0.35827377 -0.8491366 -0.034144778 -0.84295034
-1.417347 0.4826985 0.16573994 -0.030041609 -0.64135706 -0.2780499 0.510768 0.0061986563
-1.7916306 0.40300685 0.07875448 -0.028906208 -0.1373917 -1.0031729 -1.9481918 0.11719146
0.014707531 -0.6514138 0.3013433 0.1749941 -0.19693387 -0.90989494 -0.6555756 0.20127924
0.0786317 -1.3318175 -0.8458745 0.7343653 0.77433276 -1.0230935 -0.4408206 -0.847465
-0.4606312 -0.55638564 -0.35652137 -0.59897935 -0.22156137 0.13863306 -1.0905626 -0.46458185
-1.5269452 -0.5360048 0.11793208 -0.54945016 0.18281098 -0.26039815 -0.27422208 -0.23059759
-0.011299178 1.2028443 -0.38795596 0.95092005 -0.6535883 0.2008002 -0.88793814 -1.1081076
-0.82901895 0.09130922 -0.5998812 -1.0768625 -0.9840871 -0.002096852 0.7589516 -0.29518333
-0.7051006 -0.53988236 0.12102753 -0.7244591 -1.5308858 -0.97808516 -0.52155155 -0.84556824
-0.0072922753 -1.0223515 0.827765 -1.1162909 0.323025 -1.0015252 -0.2770252 0.3053354
-0.8722031 -0.65590346 -0.27748418 -0.45336613 0.15643997 -2.0701954 -0.011523858 -0.06018193
-0.5453274 0.0556923 0.2437001 -0.28222087 -1.0567429 0.09858427 -0.9804694 -0.95466906
-0.2648468 -0.2487276 -0.8298667 -0.9516695 -0.35328543 -0.98416036 -1.1407204 -0.92014104
0.5093488 0.026943384 -0.18677391 0.8024351 0.9591713 -1.1687806 0.2825805 -0.044462074
0.18695545 -0.75530607 -1.0261896 -0.16785586 0.48374635 1.4051168 0.54621166 -0.5388412
-0.8204019 0.32249528 -0.3719603 0.46857417 -1.0474662 0.39119804 -1.3264803 -1.0009006
-0.77085936 -0.5232162 0.7991371 -1.3773396 -0.57339936 0.009786576 -1.1841493 -0.026971446
-0.26375446 -0.7521933 -0.6748256 -0.029438216 -1.1943445 -1.4025879 0.6778359 -1.1750298
-1.2937208 -1.1252238 -1.1765807 -1.416798 -0.83414865 0.8153095 -0.25628433 -0.41363215
-0.18757254 -1.2686548 -0.76620203 -0.7712212 0.038931277 -0.43195757 -0.5506501 -0.49568105
0.62975633 0.1556533 -0.41996887 0.1537846 -0.95240897 -1.2636534 -0.47518796 -0.942274
-1.2804949 -0.54183924 -0.9846256 -0.8357724 0.22673939 -0.265558 -0.581895 -1.7429594

fc3.weight f4 [128, 256]
00000000: 9a9f 50bd f562 e53c ca80 a0be b192 42be
00000010: f0b9 33be 3b6c 50bd a5d1 26bd ea53 b8be
00000020: 1ee8 ac3d 6499 99bd 20a8 273e ef78 c53a
00000030: 00f1 873d c103 1fb8 c3bf dbbe d0c3 aabe
00000040: 90e3 5b3d a1af 233e 9ad0 da3d 35b5 113d
00000050: 0f12 acb9 8f74 8c3e 1ea4 84bd 627a e0bd
00000060: 243c f13c c820 ab3d 095b 94be 538f bebc
00000070: 0571 99bd d96b a1bd 21ac e8bb 203a 48be
00000080: 8185 81bd b6c9 03be b386 e9bd 5153 0bbe
00000090: 4397 5abd e64c b7bb 0286 c1be ba62 3abe
000000a0: 85dc 01be ea70 50bd a507 5bbe 24f2 17be
000000b0: 815d ef3d 73d4 77bd 75bf ccbe ad1c 6abe
000000c0: 2bce 5dbe d650 5bbe 5d47 adbc e4b3 b13e
000000d0: 25d5 17bd de1f 1ebc 3572 84bd 561b 353d
000000e0: cf1d 523d 336a 79be 4422 84be 1e4b b1be
000000f0: 8ba1 bb3e d5c1 2cbe 70f3 10bd 4cb7 f6bc
00000100: 3c30 efbd 742e 623d 2fd1 163d 9d57 58be
00000110: 7e20 efbd c38d 113d 6516 7d3e 30bf babe
00000120: 1e65 99be a809 5fbe f2eb dbbb 849a 52be
00000130: 1e1e 2c3e 3c0f c8be 54a0 1ebc cd3c 9ebe
00000140: 0c2f c83d 7686 163e 9631 80bd 26db c53c
00000150: e44d 893e ff98 fc3e af1d 99bb a872 7c3e
00000160: eba9 693b 8fd2 19be c8d1 603e 51fd 5bbc
00000170: f2cd 4cba 1afb eabd 2060 e23b 41b3 d1bb
00000180: 4217 b9bd 0182 9e3e 84fc c3be 7a27 87bd
00000190: 746b 4c3d 573e 523e 366e b1be 3bd1 ce3d
000001a0: 8b93 17be f066 c83d e5d3 d0be f3fe 83bb
000001b0: 16d9 28bc 316f ccbe 115a 07bf f9d1 4dbe
000001c0: 331e 11bf cba9 abbe 154d a93e 9040 6dbe
000001d0: 0c24 adbe ded4 823e 6dcd 113d 0e37 c4be
000001e0: b1ab c5bd 9ded 0cbd 7600 913e a891 873d
000001f0: 26c4 9e3a 4462 a6be bad9 993e 0d0c ec3d
00000200: bdeb 843d 45d2 9cbd 863a 95be 756c c7bd
00000210: 6b9a a53e 4142 82bd 9602 b9be 4195 093e
00000220: 5401 8a3d 33a7 2bbe 3f0d c7be 0c51 ad3e
00000230: c8a8 1c3e c1f8 dfbd 70df 3ebd 81a1 f5be
00000240: a94e e9bd ecd5 5e3e 245a a73e a7a2 1fbc
00000250: a447 2abe d92f c9bc 16a6 913e 44a2 13be
00000260: 54bc 3e3e 73cf ba3d 195e e0bd 0082 dfbd
00000270: dd75 0abe f81b a0bc f7b3 a63e 96b0 163e
00000280: 0c29 033d 5a8b d9bd fae4 49be 21e0 27be
00000290: 283e 33be 628b b7be 9ae2 843d fca6 af3d
000002a0: 0286 643e 8b34 9cbd 56ea ac3c 7f69 a63d
000002b0: 2b33 13bf 751b 86bd 80e1 c1be e07a aebe
000002c0: bdd1 1dbe daac 44be 7e25 83be dd1d 3cbe
000002d0: def2 6abe 9e2d b7bd 126a 1fbe 9c79 90be
000002e0: 02dd 733e 61a6 733e 5cfb cd3d 884d 653d
000002f0: 0846 21bd 96f9 9abe ac58 f6bc d506 e6bd
00000300: b2bc 82bd 1b5f 94be d782 a0be 303f bd3e
00000310: b6a5 91bd ea5c f23d c80d a83d 4c77 713e
00000320: d815 cebd 1c40 043e 5469 30bf 8800 75bd
00000330: 1480 94bc be21 3d3e 3c11 08be e905 5f3d
00000340: 1bc2 15bf b33c 32be 2ae9 f63d 0942 fc3d
00000350: 37b3 eabc 16c9 77bd f3d1 0a3f 088a b53e
00000360: 6d1e 58be aed8 a03d 271e acbd a92f 5e3e
00000370: cda0 91bd de8d b0be 4eb9 79bc db96 393e
00000380: a920 86be 76c2 4bbe 202d f23a 20e2 90be
00000390: 960f c63d 711c cb3d 812f 98bd 1424 cdbd
000003a0: fa26 d83c a656 29be 450a e2bc bfb1 2dbe
000003b0: f02e 093f a2a7 323e f029 23bf 56f8 87be
000003c0: 1b33 53bd 8190 7e3e 2974 b73e aa28 17be
000003d0: 1bcc cc3d 4385 12be 2319 863c 00e6 64be
000003e0: a87d 17be 9890 14be c1a8 93bd d916 61bd
000003f0: 6be8 02be 588f ef3d 39b1 c03d 3c03 093f
-0.050933458 0.028001288 -0.31348258 -0.19001271 -0.17551398 -0.050884467 -0.040727276 -0.3600152
0.0844271 -0.0749996 0.16372728 0.0015065948 0.06637764 -3.791205e-05 -0.4291974 -0.33352518
0.053683817 0.15984966 0.10684319 0.035573203 -0.0003281985 0.27432677 -0.06476615 -0.10960843
0.029447623 0.08355862 -0.28975704 -0.023261702 -0.0749226 -0.078818984 -0.0071005975 -0.19553423
-0.06324292 -0.12869915 -0.11402645 -0.13606001 -0.05336691 -0.005593884 -0.37797552 -0.18201724
-0.12681778 -0.050888933 -0.21389635 -0.14838463 0.11687756 -0.06050534 -0.3998982 -0.22862501
-0.21660678 -0.21417555 -0.021152193 0.34707558 -0.037068505 -0.009651152 -0.06467096 0.044215523
0.05129796 -0.24356918 -0.25807393 -0.34627622 0.36646685 -0.16870816 -0.03538841 -0.0301167
-0.11679122 0.055220082 0.036820587 -0.21127172 -0.11676119 0.035535585 0.24715574 -0.3647399
-0.2995996 -0.21781027 -0.0067114765 -0.20566756 0.16808364 -0.39074123 -0.00968178 -0.30905762
0.097745985 0.1469973 -0.06259458 0.02415235 0.26817238 0.49335477 -0.004672728 0.24653113
0.0035654258 -0.15021728 0.21955025 -0.013427095 -0.00078126707 -0.11473675 0.0069084316 -0.0063995426
-0.09037639 0.3095856 -0.38278592 -0.065993264 0.049907163 0.20531593 -0.34654397 0.10098501
-0.14802377 0.09785259 -0.40786663 -0.004028195 -0.010305664 -0.39928582 -0.52871805 -0.2009963
-0.56686705 -0.3352798 0.3306662 -0.2316916 -0.33816564 0.2555303 0.0355963 -0.38323253
-0.09651888 -0.034406293 0.28320664 0.066195786 0.00121129 -0.32496846 0.30048925 0.11525736
0.06490276 -0.07657293 -0.29146212 -0.097374834 0.32344374 -0.06360293 -0.36134785 0.13435842
0.067385346 -0.16763 -0.38877293 0.33850896 0.1529876 -0.10936118 -0.046599805 -0.4797478
-0.11391956 0.21761292 0.3268596 -0.009743369 -0.16628891 -0.024558948 0.28447026 -0.14417368
0.18626529 0.09121599 -0.10955448 -0.109134674 -0.13521524 -0.019544587 0.32559177 0.147158
0.032021567 -0.10622282 -0.19716254 -0.16394092 -0.1750418 -0.35848528 0.06488533 0.085767716
0.22316745 -0.07627209 0.021107834 0.081255905 -0.5749995 -0.06548206 -0.37867355 -0.3407812
-0.1541204 -0.19206563 -0.25614542 -0.18370767 -0.22944209 -0.08944248 -0.15567806 -0.2821778
0.23814777 0.23793937 0.100577086 0.055982143 -0.039373428 -0.30268544 -0.030071579 -0.11231772
-0.06383647 -0.2897881 -0.31349823 0.3696227 -0.07111685 0.11834128 0.082057536 0.23580664
-0.1006276 0.12915081 -0.6891072 -0.05981496 -0.018127479 0.18469903 -0.13287824 0.054448996
-0.58499306 -0.17405967 0.12056191 0.12317283 -0.02864991 -0.060494505 0.5422661 0.35456872
-0.21105357 0.07853828 -0.084041886 0.21697868 -0.071107484 -0.34483236 -0.015241934 0.18123953
-0.26196793 -0.198984 0.0018476583 -0.2829752 0.096709415 0.09917534 -0.07430936 -0.10016647
0.026385773 -0.1653696 -0.027592788 -0.16962336 0.53587246 0.1744676 -0.63735867 -0.26556653
-0.05156241 0.24859811 0.3583081 -0.14761606 0.099998675 -0.14308648 0.016369408 -0.22353363
-0.14794028 -0.14508283 -0.07209922 -0.05495343 -0.12783973 0.116972625 0.094088025 0.5352056

fc3.bias f4 [128]
00000000: 587f f43f 28eb 30bf 4f35 61bf 2a56 1d3b
00000010: 0dea 82bf 5edb 63bf 719b 6ebe 22ad 84bf
00000020: a900 ffbe cd5a 86bf ad42 2bc0 4f2a 20bf
00000030: 47a6 95bf d645 90bf 5f2c 233f a52f 0ec0
00000040: 34a4 93bf 939a 1ebf 7986 16bf 1c53 98bf
00000050: 6589 77bf a2d5 c2bf 619c 5cbf ff4a 8abf
00000060: 43e7 11bf 4ed2 2dc0 83ea 9f3e b178 21bf
00000070: f1ad 5dbf 1428 6bbf 1786 73bf 11cd 123b
00000080: 9a81 99bf 5a0d 03c0 dde5 8fbf 2747 58bf
00000090: d64b cdbf 1a16 b63e 47b1 64bf 22e7 8bbf
000000a0: 06ff e0be d4d1 f8bf f422 64bf ddac d3bf
000000b0: d1be 05bf 088a 53bf 68a5 4cbd 77c1 9fbe
000000c0: e938 67bf 1e27 8abf 4320 83bf 6c3e 71bf
000000d0: c522 983d 75a4 0940 f1a5 95bf a17c 1bbf
000000e0: f878 2fbf 6c7c dfbe ed7f 3ebf 1012 e8be
000000f0: 6dff 20bf 8fe7 03c0 b937 7fbf d12d 0dbd
00000100: 7d6a 24bf 32f8 293e 3b4b 37bf 4b08 acbf
00000110: b502 133e 4eab 72bf 629a 29bf d66c dcbe
00000120: 1dc8 42bf 9828 b4bf 0fe6 22bf b9e9 91bf
00000130: c2ac 56be da22 6bbf ee59 9cbf 2c54 0840
00000140: 61fd 873f e84a 65bf c753 6abf f82b 0140
00000150: c9b0 f9be eeb9 7dbf f642 c93e 7d2a 05bf
00000160: d53d b5bf 33d4 dabe da8f d7be 2288 3dbe
00000170: 8276 8ebf 3729 a6bf 5ed1 32bf 672f a0bd
00000180: 2ebe a3bf 1fa4 963d 7ae4 43bc a0ff c7be
00000190: 47a5 20bf 31e7 34bf 41b6 d6be 1259 12bf
000001a0: 5c43 5e3e d78a 18bf 6b71 d4be 8c16 5abf
000001b0: d1b0 88bf ae17 05bf b5f6 babe d6fa 223d
000001c0: e822 08c0 114e 1fbf cfec 11bf 0c54 15bf
000001d0: be50 30bf dd56 babe 2a3b abbf b9af e2be
000001e0: 13b3 3cbf efb4 303d 7bdd 693d e810 88bf
000001f0: 8c8b b6bf 43b8 9d3f a917 cfbf 2b70 16bf
1.9101362 -0.6910882 -0.8797197 0.0024007657 -1.0227677 -0.890066 -0.23301484 -1.0365336
-0.4980519 -1.049646 -2.6759446 -0.6256456 -1.1691369 -1.1271312 0.6373958 -2.221658
-1.1534486 -0.6195461 -0.5879894 -1.1900363 -0.9669402 -1.5221446 -0.86176115 -1.0804137
-0.569935 -2.715961 0.31233606 -0.63074785 -0.8659354 -0.9185803 -0.9512648 0.002240006
-1.1992676 -2.04769 -1.1242024 -0.8448357 -1.6038768 0.35563737 -0.89333004 -1.0929911
-0.43944567 -1.9439034 -0.89115834 -1.6537129 -0.5224429 -0.82632494 -0.04996243 -0.3120229
-0.90321213 -1.0793188 -1.024422 -0.94235873 0.07428507 2.1506627 -1.1691266 -0.60737044
-0.6854396 -0.43649614 -0.7441395 -0.4532628 -0.6288975 -2.0610082 -0.996944 -0.034467522
-0.6422499 0.16598585 -0.7159917 -1.3440031 0.14356501 -0.9479264 -0.66251194 -0.43051785
-0.760866 -1.4074888 -0.6363229 -1.1399451 -0.2096434 -0.91850054 -1.2214944 2.1301374
1.06242 -0.8956742 -0.91534084 2.0183086 -0.4876769 -0.9911183 0.393089 -0.52017957
-1.4159495 -0.4274002 -0.42101938 -0.18508962 -1.1129916 -1.2981328 -0.6985072 -0.07821541
-1.2792413 0.07355522 -0.0119563285 -0.39062214 -0.62752193 -0.7066527 -0.41935924 -0.5716716
0.21705383 -0.5958685 -0.4149278 -0.85190654 -1.067896 -0.5198926 -0.36516348 0.039789997
-2.1271305 -0.62228495 -0.57001966 -0.5833137 -0.688732 -0.36394396 -1.337743 -0.4427469
-0.73710746 0.0431413 0.057095986 -1.0630159 -1.4261336 1.2321857 -1.6179096 -0.58764905

fc4.weight f4 [1, 128]
00000000: 8a3f 6e3c 3a43 733c 06c0 7e3c 01d7 b53b
00000010: 4390 8b3c 6c7f 49bc 5149 4d3c bb67 50bc
00000020: d80a 8abc f46d 963c 196b 0e3c dc30 36bc
00000030: 5f8d 14bc ae69 6d3c f67c f33b 10b3 debd
00000040: 12fc 4fbc 335a 5b3c 6cf6 393c c0dc 38bc
00000050: 0bfd efbb 5888 a1bc 9118 46bc 376f 55bc
00000060: a300 753c 7d08 35bd 39f6 7a3c 781b 91bc
00000070: 9cd7 74bc 17de 873c f1f4 873d 6a45 5c3c
00000080: aa2e 71bc b505 5cbd f021 753c 04c7 373c
00000090: 6110 1dbd 771f 373c 494a d63c eaa0 5ebd
000000a0: 5635 523c 7281 72bc 31f3 23bc 1e3d 503c
000000b0: 5433 5ebc 6b62 0e3c 0143 7b3c 26fb 603c
000000c0: ccac 57bc 702e 503c 4795 03bd 304e 67bc
000000d0: d0de 813c fa1f ba3c a2ce fcbb 893d 2d3c
000000e0: ac0e 863c 7f48 ef3c 3099 57bc fc35 6e3c
000000f0: 3b04 9ebc bb69 a4bd 72b5 a23c 1d13 343c
00000100: 9fda acbc 5708 533c 2d88 303c 4d89 27bc
00000110: 6dc0 3c3c c514 d6bc 4871 49bc 6420 17bc
00000120: bcdd 843c 18c0 7bbd 2b9e 99bc 9c09 78bc
00000130: 239b 38bc 3f8c 73bc 23ec 3ebc 133f c03c
00000140: 42e9 573c f39d 533c 95a2 4a3c e369 603c
00000150: 89da a13c 330f 293c ef3e 3abc fcc3 8b3c
00000160: 4d1b 68bc 62c2 ac3c cdf3 4e3c e8d2 7a3c
00000170: eb36 40bc aee3 59bd 4a1c 88bc c970 0e3c
00000180: 7917 49bc 84f4 2e3c ea66 dd3b a6f6 2bbc
00000190: 601b 923c fcc1 703c fdf7 663c e3a1 2b3c
000001a0: b625 53bc 0658 90bc b16a 623c 7bb9 883c
000001b0: 49ff 6e3c c969 593c 7eeb 1e3c 6667 3f3c
000001c0: d568 1abc 9605 5d3c 32ae 373c 3a0b 99bc
000001d0: d81c 123d 361a 4c3c 9dc7 34bc ca3a 1fbc
000001e0: b393 343c 6646 483c 99ad 523c 5855 1bbc
000001f0: 764d 08bc 0670 1c3c 22c1 84bc 5939 5e3c
0.014541516 0.014847571 0.015548712 0.005549312 0.017036563 -0.012298446 0.012529687 -0.012720044
-0.016850874 0.018362977 0.008692526 -0.011120047 -0.009066909 0.014490528 0.007430668 -0.10873997
-0.012694376 0.013388204 0.011350255 -0.0112831 -0.0073238662 -0.019718334 -0.012090818 -0.013027004
0.014953765 -0.04419755 0.015317493 -0.017713293 -0.014943983 0.016585393 0.06638516 0.013444284
-0.014720598 -0.05371638 0.014961705 0.011216883 -0.0383457 0.011176935 0.026158469 -0.05435268
0.012830099 -0.01480137 -0.010006712 0.012709884 -0.013562042 0.008690457 0.015335799 0.013731753
-0.013163757 0.012706384 -0.032124784 -0.014117762 0.015853316 0.022720326 -0.0077150622 0.010573753
0.016364418 0.029209374 -0.013159081 0.014539238 -0.019289127 -0.08027979 0.01986191 0.010990885
-0.02110034 0.012880406 0.010774654 -0.010225606 0.011520487 -0.02613295 -0.012295075 -0.009224031
0.016219012 -0.06146249 -0.018752178 -0.01513901 -0.011267456 -0.01486498 -0.011652979 0.023467576
0.013178172 0.012916076 0.012367864 0.01369712 0.019757526 0.010318565 -0.011367544 0.017061226
-0.014166665 0.021088783 0.012631369 0.015309073 -0.011731843 -0.053195648 -0.016615052 0.008693882
-0.012273663 0.010678414 0.006756653 -0.010495817 0.017835319 0.014694687 0.014097211 0.0104756085
-0.012887409 -0.017620098 0.0138193825 0.016690006 0.014587232 0.01326985 0.0096997 0.011682367
-0.009424408 0.013490101 0.011210965 -0.018682111 0.03567204 0.012457421 -0.01103392 -0.009718606
0.011021542 0.012223816 0.012858772 -0.009480797 -0.008319249 0.009548193 -0.016205374 0.013563477
